fake_news_classifier.pth (torch, 548682 bytes, 5 tensors)

network.0.weight f4 [128, 1000]
0.24079336 0.31535196 0.39273563 0.1920049 0.29918736 0.13550492 0.36140984 0.20986433
-0.14910573 0.25970522 0.33587706 0.30666432 0.33563927 0.42862025 0.14721228 0.17748259
0.5362199 0.4599723 -0.27606595 0.07123528 0.44603404 0.39258817 -0.20531285 0.46430212
0.4781716 -0.11990812 0.5103437 -0.3072017 0.13145904 -0.13196233 0.276427 0.3129976
-0.21336757 0.16903059 0.088652134 -0.18907744 0.1974175 -0.39357045 -0.09807411 0.1518703
-0.06326157 -0.22414845 0.18051516 0.24515118 -0.057336595 -0.5322774 0.58474183 -0.05687795
-0.31287938 0.06716594 0.031157961 0.0672466 -0.05349146 0.063305534 -0.011300387 0.060774162
-0.032598328 0.10088442 0.04087745 0.4738963 -0.26964912 0.2615866 0.06954856 0.09258816
0.4343038 0.22016732 -0.27960768 0.7597238 0.16531071 0.21784258 -0.036298446 0.05548488
0.3384711 0.10431204 0.1376439 -0.07771285 0.060596954 -0.12560053 0.3331493 0.1440453
-0.1707731 0.060867805 -0.021703579 0.007917022 0.090594485 -0.04241382 0.057450745 -0.1892684
-0.047334768 0.075329565 -0.19941351 0.07770879 0.27915916 -0.668458 0.20362079 0.007339257
0.19238655 -0.18559471 -0.03333005 0.09404406 0.15098135 -0.035650104 -0.5789424 -0.48727968
-0.022531198 -0.11121159 -0.041559435 0.21416919 0.38335565 -0.09858979 0.21165006 -0.05094727
0.13860407 -0.0025701919 0.14218163 0.040447094 0.13026734 0.37251443 -0.20398547 -0.20584363
0.17037372 0.13162062 0.18745941 -0.026615702 -0.24472739 -0.25963664 -0.61752135 -0.35548005
0.044843182 0.21927814 0.021981813 -0.21375328 -0.023193803 -0.07823905 0.13037103 -0.30717504
0.0521235 1.0125699 0.47476128 0.1843176 -0.18737596 -0.38859397 0.09641724 0.20177585
0.046797995 0.20170113 0.19648398 -0.055840287 0.23347968 -0.3131922 -0.097247265 0.25263038
-0.20046845 -0.2395492 0.056508653 0.57537216 0.14422405 0.50172687 -0.057439245 0.14056909
0.044409323 0.5372249 0.24552567 0.3887147 0.20211715 0.07860781 0.017969761 -0.13147768
-0.31609324 -0.009201212 -0.20064883 -0.37238055 1.1885983 0.26120427 0.021508334 0.15070334
-0.0023838845 -0.20753886 0.4188558 -0.22227089 -0.26827222 -0.27487412 0.019254452 0.30777344
0.043985277 0.10352989 0.1792469 0.14737244 0.5215164 0.16063759 -0.01613493 -0.19806147
0.22958033 0.26274052 -0.06968245 -0.31081542 0.08860313 -0.19427468 -0.08827442 0.43116352
0.053317297 0.62906665 0.36683398 0.09257185 -0.11995858 0.2968389 -0.22821842 -0.017791322
-0.19474038 0.1677385 -0.196649 0.16812685 0.2713284 -0.10171191 0.08979768 0.25427306
0.07664077 0.18868682 -0.10015894 -0.08442968 -0.19153579 -0.19330312 0.3220273 -0.0636793
0.2810965 0.083762646 0.07997496 0.39334887 -0.19224429 -0.25500876 -0.011128704 -0.1853855
-0.40617558 0.07976543 -0.30453742 0.15403429 0.29083413 -0.06904583 -0.12984012 0.32560357
0.08758343 0.4850695 -0.13364008 -0.019842556 0.22754228 0.22535194 -0.29944652 0.21732147
0.20934787 0.17205283 -0.5871391 -0.00023100982 0.011550053 0.07131503 0.07703043 -0.04743693
00000000: 8992 763e d075 a13e a514 c93e ef9c 443e
00000010: 162f 993e cdc1 0a3e b60a b93e ade6 563e
00000020: 2caf 18be 15f8 843e 14f8 ab3e 1b03 9d3e
00000030: e9d8 ab3e 1d74 db3e d1be 163e ffbd 353e
00000040: b545 093f 7d81 eb3e 8458 8dbe cde3 913d
00000050: 935e e43e 5101 c93e 883d 52be 02b9 ed3e
00000060: e8d2 f43e 6392 f5bd e2a5 023f 8b49 9dbe
00000070: 339d 063e 2221 07be d787 8d3e 3941 a03e
00000080: 077d 5abe 5b16 2d3e 408f b53d 849d 41be
00000090: d027 4a3e 1182 c9be 14db c8bd e383 1b3e
000000a0: 488f 81bd 2c87 65be f7d8 383e e908 7b3e
000000b0: c7d9 6abd 5543 08bf a4b1 153f daf8 68bd
000000c0: ba31 a0be 4c8e 893d fb3e ff3c 96b8 893d
000000d0: dc19 5bbd 55a6 813d 4225 39bc 54ee 783d
000000e0: d385 05bd 7e9c ce3d 1d6f 273d 89a2 f23e
000000f0: 730f 8abe aeee 853e 7a6f 8e3d dc9e bd3d
00000100: 115d de3e 8b73 613e bd28 8fbe 427d 423f
00000110: 3647 293e 2012 5f3e aead 14bd 1d44 633d
00000120: 164c ad3e 8da1 d53d 86f2 0c3e ea27 9fbd
00000130: 8334 783d 6d9d 00be 8c92 aa3e 9c80 133e
00000140: 25df 2ebe 8550 793d b4cb b1bc 66b6 013c
00000150: 9a89 b93d 1dba 2dbd 7951 6b3d 93cf 41be
00000160: 1ae2 41bd 6346 9a3d 0e33 4cbe c925 9f3d
00000170: f3ed 8e3e 1020 2bbf f881 503e 267e f03b
00000180: fb00 453e 8a0c 3ebe 1785 08bd 2c9a c03d
00000190: db9a 1a3e d805 12bd 9235 14bf b97c f9be
000001a0: 5993 b8bc e7c2 e3bd 3a3a 2abd 2b4f 5b3e
000001b0: 3147 c43e 72e9 c9bd cbba 583e 16ae 50bd
000001c0: 3aee 0d3e aa70 28bb 1098 113e daab 253d
000001d0: cd64 053e 36ba be3e 91e1 50be acc8 52be
000001e0: 7376 2e3e 8ec7 063e 5cf5 3f3e 2c09 dabc
000001f0: d199 7abe 18ef 84be e115 1ebf 7b01 b6be
00000200: 7cad 373d 738a 603e 3413 b43c 24e2 5abe
00000210: ee00 bebc cc3b a0bd fc7f 053e 0c46 9dbe
00000220: 737f 553d e49b 813f e913 f33e c1bd 3c3e
00000230: 7cdf 3fbe caf5 c6be 6776 c53d 549e 4e3e
00000240: 41af 3f3d be8a 4e3e 1933 493e c9b8 64bd
00000250: 4c15 6f3e ba5a a0be 9329 c7bd c558 813e
00000260: 9a47 4dbe 634c 75be 9e75 673d 974b 133f
00000270: 78af 133e 2c71 003f 6a45 6bbd 58f1 0f3e
00000280: 8de6 353d 9287 093f 156b 7b3e 9d05 c73e
00000290: ccf7 4e3e 22fd a03d 5235 933c 16a2 06be
000002a0: f9d6 a1be aec0 16bc e376 4dbe aaa8 bebe
000002b0: fd23 983f 91bc 853e 3f32 b03c fa51 1a3e
000002c0: f23a 1cbb 1185 54be 4474 d63e fb9a 63be
000002d0: fa5a 89be 4dbc 8cbe 83bb 9d3c 7b94 9d3e
000002e0: e829 343d 7b07 d43d 808c 373e cde8 163e
000002f0: 1982 053f 2e7e 243e 672d 84bc a0d0 4abe
00000300: 1b17 6b3e ed85 863e acb5 8ebd 3323 9fbe
00000310: 8f75 b53d f1ef 46be 38c9 b4bd 77c1 dc3e
00000320: 3d63 5a3d 830a 213f aad1 bb3e 4f96 bd3d
00000330: d8ac f5bd 45fb 973e 17b2 69be 1bbf 91bc
00000340: 066a 47be a4c3 2b3e 5b5e 49be 7229 2c3e
00000350: 8eeb 8a3e 554e d0bd d9e7 b73d 1430 823e
00000360: d6f5 9c3d 1e37 413e 2120 cdbd 78e9 acbd
00000370: f521 44be 41f1 45be c3e0 a43e 4b6a 82bd
00000380: e1eb 8f3e c08b ab3d e9c9 a33d 0665 c93e
00000390: b0db 44be 8290 82be 2b55 36bc b2d5 3dbe
000003a0: 3ff6 cfbe 0f5c a33d 54ec 9bbe 2abb 1d3e
000003b0: 36e8 943e e667 8dbd cff4 04be 83b5 a63e
000003c0: f15e b33d 085b f83e f2d8 08be db8c a2bc
000003d0: d800 693e a9c2 663e 0e51 99be 8589 5e3e
000003e0: 4a5f 563e 9e2e 303e c04e 16bf 3a3b 72b9
000003f0: 6f3c 3d3c 9d0d 923d 21c2 9d3d 3a4d 42bd

network.0.bias f4 [128]
-0.22408491 -0.71957046 -0.05763945 -0.6472731 -0.14884102 -0.3581578 -0.56371 -0.05256741
-0.71276 -0.19297431 -0.5038767 -0.390475 -0.25787994 -0.048131775 -0.451297 -0.40691012
-0.38489878 -0.340381 -0.120170295 -0.38652414 -0.6610358 -0.26383337 0.055793654 -0.2462243
-0.25887135 -0.26101354 -0.4015713 0.0136793 -0.07162068 -0.540733 -0.41126356 -0.54585135
-0.24792212 -0.44727686 -0.07455448 -0.29338086 -0.7357416 -0.42072034 -0.13778201 -0.43750572
-0.41889516 -0.6127665 -0.021267459 -0.6391355 -0.5548268 -0.23455392 -0.007501282 -0.6458664
-0.6871156 -0.43549547 -0.044327207 -0.42742455 -0.037114643 -0.30331457 -0.5532957 -0.41008323
-0.21516678 -0.4469489 -0.5193668 -0.0978374 -0.33326867 -0.5891863 0.105325215 -0.61939335
-0.21112312 -0.37849593 -0.3289892 -0.5616037 -0.02581204 -1.0873433 -0.61561066 -0.779311
-0.49206346 -0.6663483 -0.26347438 -0.31707257 -0.6074411 0.29742023 -0.37774265 -0.22795245
-0.134098 -0.32541245 -0.70980185 -0.29879326 -0.5143139 -0.90405226 -0.41791654 -0.53760356
-0.16153899 -0.32211939 -0.2681492 -0.4891188 -0.4225691 -0.4157666 -0.9623105 -0.20858535
-0.470612 -0.47964442 -0.08529303 -0.7440813 -0.8482863 -0.26459712 0.077305876 -0.45427617
-0.45596346 -0.07421784 -0.29168472 -0.76866215 -0.26241383 -0.67938894 -0.48738512 -0.7588076
-0.65915453 -0.54047936 -0.07421 -0.23075718 -0.5509911 -0.45323715 -0.54437155 -0.0731633
-0.6695365 -0.31009346 -0.33509874 -0.7064438 -0.21600124 0.012368674 -0.4658198 -0.3772149
00000000: 8476 65be c535 38bf 5817 6cbd b1b3 25bf
00000010: c869 18be 7660 b7be 4c4f 10bf ed50 57bd
00000020: 7077 36bf 0f9b 45be 10fe 00bf 57ec c7be
00000030: d708 84be d325 45bd 6610 e7be 8656 d0be
00000040: 7411 c5be 6b46 aebe d81b f6bd 7ee6 c5be
00000050: a439 29bf 2b15 87be e387 643d 3922 7cbe
00000060: c98a 84be 91a3 85be c19a cdbe 251f 603c
00000070: ddad 92bd 7a6d 0abf 2391 d2be eabc 0bbf
00000080: 4cdf 7dbe 7901 e5be 05b0 98bd 0436 96be
00000090: 9059 3cbf a868 d7be ba16 0dbe c000 e0be
000000a0: 6d79 d6be 44de 1cbf 1839 aebc 629e 23bf
000000b0: 2109 0ebf e72e 70be 50cd f5bb 8057 25bf
000000c0: cfe6 2fbf 43f9 debe 7290 35bd 64d7 dabe
000000d0: 8605 18bd 0c4c 9bbe c9a4 0dbf 6ef6 d1be
000000e0: ae54 5cbe 7cd6 e4be 39f5 04bf fa5e c8bd
000000f0: 31a2 aabe ead4 16bf bfb4 d73d 9090 1ebf
00000100: a930 58be 38ca c1be 4671 a8be 43c5 0fbf
00000110: c573 d3bc 112e 8bbf a998 1dbf ed80 47bf
00000120: beef fbbe cd95 2abf 1de6 86be 5657 a2be
00000130: 4381 1bbf 7747 983e 7c67 c1be 5e6c 69be
00000140: fc50 09be 769c a6be 93b5 35bf 6efb 98be
00000150: 13aa 03bf f86f 67bf 28f9 d5be 63a0 09bf
00000160: 7a6a 25be d5ec a4be da4a 89be c86d fabe
00000170: fa5a d8be 5cdf d4be fb59 76bf 6697 55be
00000180: 0ef4 f0be f493 f5be 1dae aebd 1d7c 3ebf
00000190: 4a29 59bf 4679 87be 8b52 9e3d e396 e8be
000001a0: 0b74 e9be 86ff 97bd b357 95be 0bc7 44bf
000001b0: 1b5b 86be 6fec 2dbf 8b8a f9be 3741 42bf
000001c0: 5abe 28bf db5c 0abf 6afb 97bd 9c4b 6cbe
000001d0: c10d 0dbf b30e e8be ef5b 0bbf a4d6 95bd
000001e0: be66 2bbf 92c4 9ebe 1092 abbe 80d9 34bf
000001f0: 6e2f 5dbe fba5 4a3c ef7f eebe 5022 c1be

network.2.weight f4 [64, 128]
-0.023625921 -0.0074914964 0.0050679217 -0.09201538 -0.038765036 -0.03059569 0.012126257 0.039134357
-0.086741544 -0.033073124 -0.1400751 -0.14700422 -0.05624941 0.011679413 0.07505111 -0.10665519
-0.054378122 -0.15364945 -0.1143761 -0.12622145 0.07615861 -0.0036317075 -0.061782815 -0.085912034
-0.023332873 -0.044384837 -0.06659167 -0.05077661 -0.045561314 -0.07358827 -0.042100046 0.016830707
-0.0640205 -0.008748778 -0.035614092 -0.1452169 -0.08446344 0.021091282 -0.033235263 0.048590586
-0.17013802 -0.0150196655 -0.0071897004 -0.08498793 0.034792542 -0.112723 -0.019977946 -0.037302725
-0.098687 -0.016786799 -0.102885395 0.009373313 0.0001302534 -0.12710553 -0.14511284 0.049744155
-0.061859667 -0.17330612 -0.015328254 -0.12475429 -0.10975961 -0.17368646 -0.09077679 -0.14592445
-0.13633174 -0.12789199 -0.06778783 -0.14114048 -0.0300976 -0.049514715 -0.07237218 -0.12091233
-0.11346811 0.06835325 -0.09143447 0.0649135 -0.051040985 0.013091018 0.005252206 -0.07497361
-0.0032015482 -0.0070511033 -0.091164544 -0.11869292 -0.13048811 -0.050048918 -0.03650004 -0.006118408
0.021924777 -0.013645877 0.015146715 -0.053669896 0.010230249 -0.04067914 -0.040455226 -0.03892628
-0.11110684 -0.11327839 0.017764859 0.07493916 0.00015301332 -0.112571955 -0.120157555 -0.04393232
-0.010428574 0.009647719 -0.05041754 -0.094682544 -0.15276223 -0.0940258 -0.0078120437 -0.15096663
0.08157526 -0.112616576 -0.027658626 -0.061985876 -0.007551194 -0.11581048 -0.007152481 -0.09228232
-0.013808157 -0.06476433 0.12071627 0.017983688 -0.018337335 -0.06471052 -0.057111137 -0.012805923
-0.40585506 -0.2806203 0.006982816 -0.23013411 -0.11843265 -0.14227794 0.053601425 0.0649272
0.01977356 -0.08330935 0.014153346 0.22653034 -0.3162297 0.4727119 0.1581936 -0.20902024
0.23540625 -0.06961033 0.06629885 0.39022496 -0.15939906 0.20410728 -0.19169316 -0.092806146
-0.07405707 -0.030082915 0.043120727 -0.19360569 0.011751922 -0.024070289 -0.048913088 0.0032880635
-0.21894349 0.092701785 -0.15441702 -0.031991582 0.08777599 0.04096581 -0.28001747 0.29878262
0.038566295 -0.007629105 -0.35240877 0.02214989 0.39081645 -0.10460181 -0.10368858 0.24191761
0.14590596 -0.21782917 -0.047511496 -0.31035036 -0.09780105 -0.17527138 -0.01012107 -0.12746741
0.016716493 -0.0073350784 -0.12733477 0.14407867 -0.19008672 -0.25926012 -0.35226488 -0.027705314
0.22206569 -0.29107854 -0.2529879 -0.1363789 -0.6103718 -0.041835025 0.18087701 0.25469515
-0.019315924 -0.02037988 0.20744523 -0.2046228 0.11451358 -0.23256342 -0.43967625 -0.08225903
0.12823176 0.7813521 -0.42820755 -0.17439066 -0.039678067 0.13070492 0.41024008 0.005380001
-0.18806757 -0.04662194 -0.32549903 0.3513662 0.09256499 0.30150503 0.041193925 -0.09772688
-0.54688084 0.14158143 -0.16824986 0.7606817 0.33114767 0.92801386 -0.15873046 -0.10411532
-0.17740715 -0.16613856 -0.49917263 -0.018859534 -0.030949311 0.23591457 0.042857755 -0.16858277
0.026966127 -0.0062189135 0.0018944696 0.09383995 0.2812953 0.4023703 0.0015067412 0.08112899
-0.11946045 -0.2503294 0.5334263 0.31375107 0.22064395 -0.032276977 0.13747895 -0.15120646
00000000: 268b c1bc 3a7b f5bb cf10 a63b 8f72 bcbd
00000010: 16c8 1ebd d0a3 fabc 35ad 463c 594b 203d
00000020: 8da5 b1bd af77 07bd d96f 0fbe 4688 16be
00000030: c865 66bd 025b 3f3c 65b4 993d 096e dabd
00000040: 98bb 5ebd 4856 1dbe 043e eabd 3240 01be
00000050: 0cf9 9b3d f101 6ebb fa0f 7dbd a6f2 afbd
00000060: 9524 bfbc e0cc 35bd 3761 88bd 22fb 4fbd
00000070: 809e 3abd 72b5 96bd 1971 2cbd 8de0 893c
00000080: 2e1d 83bd 0957 0fbc 15e0 11bd bdb3 14be
00000090: 2bfb acbd a0c7 ac3c b321 08bd ec06 473d
000000a0: a938 2ebe 0b15 76bc 9497 ebbb 270e aebd
000000b0: a082 0e3d 51db e6bd caa8 a3bc beca 18bd
000000c0: 691c cabd 7884 89bc 94b5 d2bd 8692 193c
000000d0: a194 0839 f427 02be 7698 14be 87c0 4b3d
000000e0: 9060 7dbd 2977 31be 5b23 7bbc 2d7f ffbd
000000f0: a5c9 e0bd ddda 31be 2fe9 b9bd 386d 15be
00000100: 8c9a 0bbe 1ef6 02be 59d4 8abd 2187 10be
00000110: 3e8f f6bc f1cf 4abd de37 94bd e2a0 f7bd
00000120: f861 e8bd cafc 8b3d ff41 bbbd 5ef1 843d
00000130: 5a10 51bd b67b 563c b31a ac3b c48b 99bd
00000140: 11d1 51bb f10c e7bb 7ab4 babd 4615 f3bd
00000150: ad9e 05be 1800 4dbd 1181 15bd ed7c c8bb
00000160: 979b b33c f592 5fbc ed29 783c f7d4 5bbd
00000170: c69c 273c 2b9f 26bd 61b4 25bd 2a71 1fbd
00000180: fc8b e3bd 80fe e7bd 9c87 913c b479 993d
00000190: 3372 2039 208c e6bd 2a15 f6bd 60f2 33bd
000001a0: 9cdc 2abc 7711 1e3c 9f82 4ebd ece8 c1bd
000001b0: b46d 1cbe 9990 c0bd 2cfc ffbb ff96 1abe
000001c0: ee10 a73d 85a3 e6bd 5894 e2bc e7e4 7dbd
000001d0: 0270 f7bb 0c2e edbd 5c5f eabb 83fe bcbd
000001e0: 9c3b 62bc 29a3 84bd 173a f73d 8752 933c
000001f0: 2e38 96bc f386 84bd 5eed 69bd efcf 51bc
00000200: 3ccc cfbe 77ad 8fbe 1bd0 e43b 47a8 6bbe
00000210: d18c f2bd 4fb1 11be 2b8d 5b3d 8df8 843d
00000220: 29fc a13c 189e aabd 70e3 673c 92f7 673e
00000230: dce8 a1be 4b07 f23e 81fd 213e 6709 56be
00000240: 560e 713e dc8f 8ebd b1c7 873d 91cb c73e
00000250: 8239 23be 8001 513e 364b 44be 2611 bebd
00000260: 3cab 97bd 7270 f6bc 5c9f 303d 9240 46be
00000270: 228b 403c 0e2f c5bc 1759 48bd 8d7c 573b
00000280: b932 60be 6fda bd3d 7f1f 1ebe 9b09 03bd
00000290: e6c3 b33d c4cb 273d 735e 8fbe 09fa 983e
000002a0: b1f7 1d3d 92fd f9bb ec6e b4be b073 b53c
000002b0: 1819 c83e 7939 d6bd ae5a d4bd 40b9 773e
000002c0: 5f68 153e 9c0e 5fbe 6a9b 42bd 3ee6 9ebe
000002d0: eb4b c8bd 577a 33be d8d2 25bc d186 02be
000002e0: 07f1 883c 195b f0bb 0c64 02be 5c89 133e
000002f0: 18a6 42be bebd 84be 105c b4be 41f6 e2bc
00000300: 3065 633e 3f08 95be a187 81be e9a6 0bbe
00000310: 5441 1cbf 345b 2bbd d337 393e 6767 823e
00000320: 6e3c 9ebc b5f3 a6bc 866c 543e a488 51be
00000330: 1986 ea3d 1b25 6ebe 3f1d e1be 6c77 a8bd
00000340: 304f 033e b106 483f 053e dbbe 7793 32be
00000350: 7885 22bd 83d7 053e fd0a d23e b84a b03b
00000360: c994 40be a6f6 3ebd cfa7 a6be 45e6 b33e
00000370: b792 bd3d de5e 9a3e f6ba 283d 0825 c8bd
00000380: 6200 0cbf b9fa 103e b149 2cbe 09bc 423f
00000390: 308c a93e 5192 6d3f 3d8a 22be 6a3a d5bd
000003a0: 38aa 35be 3a20 2abe 8e93 ffbe 4f7f 9abc
000003b0: 6989 fdbc 9793 713e 9d8b 2f3d f6a0 2cbe
000003c0: 11e8 dc3c 07c8 cbbb da4f f83a 292f c03d
000003d0: f005 903e 7b03 ce3e d87d c53a f526 a63d
000003e0: aea7 f4bd 2d2b 80be a08e 083f fba3 a03e
000003f0: 7df0 613e dd34 04bd 48c7 0c3e ded5 1abe

network.2.bias f4 [64]
-0.11459423 -0.121434756 -0.16127244 0.21211353 0.39354023 -0.109748006 0.3135717 0.31878388
0.21133557 0.19501954 0.33799273 -0.08875321 0.23632145 0.16266128 0.05023529 0.31761664
-0.120454125 0.16356413 0.281607 -0.008218905 -0.064562194 -0.073102064 -0.101803824 0.24551567
0.26954213 0.22551644 -0.27080902 0.052575216 0.2946959 -0.14869764 0.25679138 0.29833782
0.25661975 0.09660468 0.30114505 0.25730816 0.29391995 0.29277197 0.30594894 0.30765203
-0.06054923 0.24335198 0.22461458 -0.14005728 -0.12946643 -0.055596903 -0.023743331 0.02027731
-0.078335226 0.22184882 0.29265276 0.28702465 -0.18025646 -0.082949035 0.1173325 0.18883313
0.29651326 0.14608283 -0.104926445 -0.07175613 0.24683097 0.14454761 0.21614967 -0.19817019
00000000: 61b0 eabd c9b2 f8bd 9a24 25be 4a34 593e
00000010: 1b7e c93e 90c3 e0bd 788c a03e a437 a33e
00000020: 5a68 583e 34b3 473e 620d ad3e 3ec4 b5bd
00000030: 40fe 713e ae90 263e 85c3 4d3d a69e a23e
00000040: a7b0 f6bd 5b7d 273e cb2e 903e 96a8 06bc
00000050: 2f39 84bd 89b6 95bd 867e d0bd 7668 7b3e
00000060: 6d01 8a3e c8ed 663e 7ba7 8abe 1c59 573d
00000070: 62e2 963e 3244 18be 297a 833e bcbf 983e
00000080: aa63 833e add8 c53d af2f 9a3e e5bd 833e
00000090: ad7c 963e 35e6 953e 57a5 9c3e 9184 9d3e
000000a0: 7802 78bd 4331 793e 5d01 663e 2d6b 0fbe
000000b0: d992 04be 94b9 63bd 6081 c2bc 9a1c a63c
000000c0: 386e a0bd 562c 633e 95d6 953e e5f4 923e
000000d0: 2695 38be 2fe1 a9bd 064c f03d 795d 413e
000000e0: 96d0 973e bd96 153e ade3 d6bd e1f4 92bd
000000f0: 42c1 7c3e 4a04 143e 5756 5d3e 20ed 4abe

network.4.weight f4 [1, 64]
0.0047049616 0.1627735 0.0113468 0.17072651 0.37053448 0.06426897 0.3268966 -0.18351935
0.31334364 -0.20530033 -0.25467682 0.071918815 0.29604545 -0.34365004 -0.1725302 -0.31241652
-0.020630157 0.36485383 -0.2852449 -0.05163721 -0.068330064 -0.037463363 -0.0008248181 0.33194646
-0.20498529 0.46537614 -0.028942049 0.15043224 -0.20886959 0.029640494 0.22681788 -0.22444674
0.34204876 0.1122815 -0.25279135 0.2377365 -0.24664074 0.24981679 -0.22580166 -0.26906493
0.06927164 -0.19803652 -0.29311597 -0.012066204 0.02176741 -0.072094224 0.042831022 0.06972513
0.014078789 -0.18108031 0.15557325 0.24099986 0.026977627 0.028287394 -0.14046185 0.10475738
0.2335381 0.042552844 -0.017766634 -0.063885756 0.2873782 0.2570553 -0.23426256 -0.0327616
00000000: 142c 9a3b 19ae 263e eee7 393c eed2 2e3e
00000010: b2b6 bd3e 739f 833d fe5e a73e 7fec 3bbe
00000020: 946e a03e 403a 52be 0065 82be 2c4a 933d
00000030: 4593 973e e6f2 afbe c2ab 30be 0ff5 9fbe
00000040: 9300 a9bc 1fce ba3e 9f0b 92be 8a81 53bd
00000050: a2f0 8bbd 2f73 19bd 9b38 58ba e3f4 a93e
00000060: aae7 51be c845 ee3e e017 edbc e90a 1a3e
00000070: e9e1 55be 9fd0 f23c f242 683e 5ed5 65be
00000080: 0421 af3e d8f3 e53d de6d 81be 3271 733e
00000090: 648f 7cbe f9cf 7f3e 8d38 67be e1c2 89be
000000a0: 4ade 8d3d 16ca 4abe 4c13 96be 54b1 45bc
000000b0: 9151 b23c 23a6 93bd 956f 2f3d 0dcc 8e3d
000000c0: b9aa 663c 1e6d 39be 984e 1f3e abc8 763e
000000d0: 2f00 dd3c f7ba e73c 3bd5 0fbe 0a8b d63d
000000e0: 9d24 6f3e e44b 2e3d 558b 91bc 89d6 82bd
000000f0: 3c23 933e c19c 833e 86e2 6fbe 0731 06bd
